Model: "sequential"
_________________________________________________________________
Layer (type)                 Output Shape              Param #   
=================================================================
dense (Dense)                (None, 128)               5248      
_________________________________________________________________
dense_1 (Dense)              (None, 64)                8256      
_________________________________________________________________
dense_2 (Dense)              (None, 32)                2080      
_________________________________________________________________
dense_3 (Dense)              (None, 16)                528       
_________________________________________________________________
dense_4 (Dense)              (None, 10)                170       
=================================================================
Total params: 16,282
Trainable params: 16,282
Non-trainable params: 0
_________________________________________________________________
Epoch 1/100

 1/94 [..............................] - ETA: 0s - loss: 2.3079 - accuracy: 0.0312
30/94 [========>.....................] - ETA: 0s - loss: 2.3012 - accuracy: 0.1083
60/94 [==================>...........] - ETA: 0s - loss: 2.2975 - accuracy: 0.1214
…
