Model: "sequential"
_________________________________________________________________
Layer (type)                 Output Shape              Param #   
=================================================================
dense (Dense)                (None, 128)               15488     
_________________________________________________________________
dense_1 (Dense)              (None, 64)                8256      
_________________________________________________________________
dense_2 (Dense)              (None, 32)                2080      
_________________________________________________________________
dense_3 (Dense)              (None, 16)                528       
_________________________________________________________________
dense_4 (Dense)              (None, 10)                170       
=================================================================
Total params: 26,522
Trainable params: 26,522
Non-trainable params: 0
_________________________________________________________________
Epoch 1/100

 1/90 [..............................] - ETA: 0s - loss: 21.0040 - accuracy: 0.0625
17/90 [====>.........................] - ETA: 0s - loss: 7.4664 - accuracy: 0.1029 
36/90 [===========>..................] - ETA: 0s - loss: 5.1983 - accuracy: 0.1285
…
