Model: "sequential"
_________________________________________________________________
Layer (type)                 Output Shape              Param #   
=================================================================
dense (Dense)                (None, 128)               15488     
_________________________________________________________________
dense_1 (Dense)              (None, 64)                8256      
_________________________________________________________________
dense_2 (Dense)              (None, 32)                2080      
_________________________________________________________________
dense_3 (Dense)              (None, 16)                528       
_________________________________________________________________
dense_4 (Dense)              (None, 10)                170       
=================================================================
Total params: 26,522
Trainable params: 26,522
Non-trainable params: 0
_________________________________________________________________
Epoch 1/100

 1/90 [..............................] - ETA: 0s - loss: 48.8790 - accuracy: 0.0312
15/90 [====>.........................] - ETA: 0s - loss: 20.1009 - accuracy: 0.0833
30/90 [=========>....................] - ETA: 0s - loss: 12.2568 - accuracy: 0.0979
…
