Model: "sequential"
_________________________________________________________________
Layer (type)                 Output Shape              Param #   
=================================================================
dense (Dense)                (None, 128)               5248      
_________________________________________________________________
dense_1 (Dense)              (None, 64)                8256      
_________________________________________________________________
dense_2 (Dense)              (None, 32)                2080      
_________________________________________________________________
dense_3 (Dense)              (None, 16)                528       
_________________________________________________________________
dense_4 (Dense)              (None, 10)                170       
=================================================================
Total params: 16,282
Trainable params: 16,282
Non-trainable params: 0
_________________________________________________________________
Epoch 1/100

 1/94 [..............................] - ETA: 0s - loss: 2.3027 - accuracy: 0.0938
33/94 [=========>....................] - ETA: 0s - loss: 2.3026 - accuracy: 0.0994
63/94 [===================>..........] - ETA: 0s - loss: 2.3025 - accuracy: 0.1002
…
