Model: "sequential"
_________________________________________________________________
Layer (type)                 Output Shape              Param #   
=================================================================
dense (Dense)                (None, 128)               5248      
_________________________________________________________________
dense_1 (Dense)              (None, 64)                8256      
_________________________________________________________________
dense_2 (Dense)              (None, 32)                2080      
_________________________________________________________________
dense_3 (Dense)              (None, 16)                528       
_________________________________________________________________
dense_4 (Dense)              (None, 10)                170       
=================================================================
Total params: 16,282
Trainable params: 16,282
Non-trainable params: 0
_________________________________________________________________
Epoch 1/100

 1/94 [..............................] - ETA: 0s - loss: 2.3454 - accuracy: 0.1562
28/94 [=======>......................] - ETA: 0s - loss: 2.2752 - accuracy: 0.1574
53/94 [===============>..............] - ETA: 0s - loss: 2.2561 - accuracy: 0.1745
…
